checkpoint.params (torch, 9887 bytes, 6 tensors)

dense1.weight f4 [32, 36]
00000000: ca4f 5a3d cda2 1fbe 0021 1d3e c2b9 553d
00000010: 92d8 0dbe 14ab f13d f6e3 edbd 40f2 113e
00000020: b55a aabd ba66 00be 0ad5 a6bd a43a d83d
00000030: d482 59bd a63b c0bd 38ea 283e e1e8 08be
00000040: 9a09 703d 6403 fe3d 54d5 173e f2de 9dbd
00000050: 21f6 27be 38bd 273e 8617 efbd 1ada a7bd
00000060: c5b1 a03d 20d8 193e 7834 073e 2608 fabc
00000070: 60ba c03d 3c65 263e f9da 04be 0a39 1abe
00000080: 5b76 1fbd 25d3 91bd ad11 b9bd edff 31bd
00000090: 5ea5 da3d 50fe 123e 1f00 6f3d ec05 463c
000000a0: 4974 3ebd 5a59 78bd f385 283e 8713 aebd
000000b0: 80ce dabd 908a d93a 5ae8 81bd 2179 a23b
000000c0: 82da 003e ccaa 1ebd b11f f1bd aa3e 2cbe
000000d0: 0945 84bc ab90 833d d7a9 a3bd f6ff 0c3e
000000e0: 4937 0a3e 6e5a 09be 5a6b d8bd 7124 073e
000000f0: b4be cb3d ab6c 8fbd 09c3 ac3d 816b 403d
00000100: e661 ac3c 33f0 1ebe 4d3c f63d 6d22 363d
00000110: 2f23 dd3d f729 7439 06cd 023e 682e bebd
00000120: ae30 49bb ee5d 433c 6b19 26bd 43b5 093d
00000130: dad3 6d3d 5d54 01be 37fb a9ba 6483 f4bd
00000140: cbee 02be aab3 243e c832 f53d d08c c93d
00000150: 6703 21bc a218 593d e563 00be 3f70 1ebe
00000160: be6f 4dbd acc6 233e c015 c03d 34ed 6fbd
00000170: 0f0c 22be cee0 e63c dc18 f3bd a22d 5e3d
00000180: 0ab5 a1bd 627c abbd 7c29 eb3d a46a 5bbd
00000190: d9c2 e1bd 03f6 16be 8c02 293e b9d1 c6bd
000001a0: 0719 19bd 378b 113d c53b 0dbe 972b 893c
000001b0: 19e7 11be 3b94 f43c 4129 d73d 6435 e73d
000001c0: 1d85 c8bc f700 273d c0be 85bc b083 233e
000001d0: 5996 723d 71a0 0b3e 711c 0a3e b476 f63d
000001e0: c51d 97bc 8e6e 2abd 6573 30bd 246f f2bd
000001f0: cb7f d0bd 1b5f c0bd ee16 19be 8486 043d
00000200: 45a3 fe3c c040 c13c 3c71 cc3d ac9e abbd
00000210: 8f87 b2bd 90dd b2bc ae36 ebbd 0309 5d3d
00000220: ff79 043d 4250 ba3d 6109 f03d 6638 773d
00000230: a8ed 8dbc 70dc fa3d 70e1 ccbd cab5 21be
00000240: 45c6 85bd a460 d7bd c253 38bd b4c9 cc3d
00000250: 874c d2bd bd7e 6a3d dd96 8f3d 7639 dbbd
00000260: 79d1 14be c089 043e a0b8 133e 47cf 26be
00000270: 2a7b ac3d 11be 20be d0ff ca3d 5aea bfbd
00000280: 0d53 6a3d abd9 01be 22bb 05be 760c 1dbe
00000290: 1659 56bb 112b e1bd c763 b0bd 6d7c aabd
000002a0: ab94 01be 5f54 01be d9a3 00be 981d 283e
000002b0: 190a 943d b8e5 a53c faf2 09be 1dd8 27be
000002c0: 606a f03d 2a74 ecbd 0e83 c3bb 5103 f8bd
000002d0: dcc0 8b3d c0eb 5c3d 79e1 9ebd d188 b83d
000002e0: 6d72 873d 3174 e23d 1396 173e 6be3 393d
000002f0: 257a 89bd d176 143e b957 c9bd 1e69 6abc
00000300: c8d3 b7bc 2daf a33c 57a5 0b3e 1248 fb3d
00000310: bbbb 6fbb a930 d6bd b5ef 54bd d135 e93c
00000320: 1d98 f03d b955 ff3d 097a a03c 10d2 4e3d
00000330: bdc2 f13d a771 17be 300d 92bd b5f2 aabc
00000340: e7db 273e 8513 0bbd e7dd fdbd ee0f 54bd
00000350: 281b 12be 5caa ac3d a36d 243e da03 173d
00000360: df2a 953d 1463 17be 0b10 87bd 7970 02be
00000370: 67d9 803c f604 fe3d 713d 1d3d 2bd5 103e
00000380: f1cf 8dbc c9c3 d13a 4c87 bfbd 76de 37bd
00000390: c79f d13d 52be e13d cff8 173e 9586 163d
000003a0: 2a1a d43d 5686 4bbd e506 943c 581e bebd
000003b0: f7c5 cebd c6ca f93d 64a0 eb3c 9593 283e
000003c0: dc3e 4ebd 4007 b0bd be8f 1dbe ddff 00bd
000003d0: 3a9a e9bd 28f4 adbd f73f a23d 8317 be3d
000003e0: 8a0b ec3d 7765 c7bc 11e2 923d ef3c a5bd
000003f0: 95a4 82bd ea21 1d3e 3f58 e13d bf3a 193e
0.05329875 -0.15589447 0.1534462 0.052179106 -0.13852146 0.11800209 -0.11615746 0.14252567
-0.08318082 -0.12539187 -0.08146103 0.1055806 -0.053103283 -0.09386377 0.16495597 -0.13370086
0.058602907 0.124029905 0.14827472 -0.07708539 -0.16402484 0.16380775 -0.116744086 -0.081958964
0.07846407 0.15023851 0.13203609 -0.030521464 0.09410548 0.16249555 -0.12974156 -0.15060821
-0.038931232 -0.07120351 -0.090365745 -0.04345696 0.106760725 0.14354825 0.058349725 0.012086373
-0.046497617 -0.060632087 0.16457348 -0.08499818 -0.10683918 0.0016597081 -0.06343146 0.0049582873
0.12583354 -0.038737103 -0.11773623 -0.1682078 -0.0161462 0.064240776 -0.07991379 0.13769516
0.13497652 -0.13413402 -0.10567351 0.13197495 0.09948483 -0.07003149 0.084356375 0.046977524
0.021042775 -0.15521316 0.1202322 0.044466425 0.10797726 0.00023285286 0.12773523 -0.09286195
-0.0030699181 0.01192425 -0.040551584 0.03362013 0.058063366 -0.12629838 -0.0012968545 -0.11939123
-0.12786405 0.16084161 0.119725764 0.09841311 -0.009827471 0.053002007 -0.12538107 -0.15472506
-0.050155394 0.15993756 0.093791485 -0.058575824 -0.15824912 0.028183367 -0.11869976 0.054242738
-0.078958586 -0.083733335 0.11482522 -0.053568497 -0.11023492 -0.14742284 0.16504878 -0.0970797
-0.037377384 0.035533156 -0.13792332 0.016744418 -0.14248313 0.029855838 0.105059154 0.1128948
-0.024477536 0.040772405 -0.016326308 0.15968204 0.059225414 0.13635422 0.13487412 0.120343596
-0.018446812 -0.04160934 -0.0430788 -0.11837605 -0.101806246 -0.0939314 -0.14950153 0.032354847
0.031083712 0.023590446 0.09982535 -0.08379874 -0.08717262 -0.021834165 -0.11485039 0.053963672
0.032342907 0.09097339 0.11720539 0.06035652 -0.017325237 0.12249076 -0.10003936 -0.15792003
-0.065319575 -0.105164796 -0.045001753 0.09999409 -0.10268503 0.057249773 0.07011197 -0.10704319
-0.14533032 0.12943172 0.14425898 -0.16290008 0.08421929 -0.15697505 0.099120736 -0.09370871
0.05720811 -0.1268069 -0.13059667 -0.15336785 -0.0032706908 -0.109945424 -0.08612781 -0.083245136
-0.12654369 -0.12629841 -0.12562503 0.16417539 0.072284885 0.02025114 -0.13471594 -0.16391034
0.117390394 -0.11545594 -0.0059665507 -0.121100076 0.068238944 0.053935766 -0.07757849 0.09010471
0.06613622 0.11057318 0.14803343 0.0453829 -0.0671275 0.1449845 -0.09831185 -0.014307288
-0.022439852 0.019980991 0.13637291 0.12269606 -0.0036580402 -0.104585 -0.051986415 0.028468044
0.11747763 0.12467522 0.01958944 0.0504933 0.118047215 -0.14789449 -0.071314216 -0.020867685
0.1639248 -0.033954162 -0.1239584 -0.051773004 -0.14268172 0.08430931 0.16057448 0.036868908
0.07283568 -0.14783889 -0.06594857 -0.12738217 0.015728666 0.1240329 0.038388673 0.14143817
-0.017311068 0.0016003783 -0.09351978 -0.04488989 0.10235553 0.11022629 0.14841007 0.03674944
0.10356553 -0.04968866 0.018069694 -0.09283131 -0.100963525 0.12196879 0.028763004 0.16462548
-0.050352916 -0.08595133 -0.15386865 -0.03149401 -0.114063695 -0.08493835 0.079223566 0.09281828
0.115256384 -0.024340374 0.07172025 -0.08068263 -0.06379048 0.15344968 0.1100316 0.14963816

dense1.bias f4 [32]
00000000: c7b3 1a3d 3657 b23c c0b8 ea3d 0eb6 0cbe
00000010: 7c2a febd b62d 65bc 448e 25be 647d 123e
00000020: cb48 dd3d 2405 cbbd f5dc c7bd 9ad0 1d3e
00000030: 6e30 fdbc 19e0 d0bd e1fb 7d3d 1ebe 9b3c
00000040: e419 43bd 9e74 66bd b987 ad3c b52f 903a
00000050: c787 0ebe 5d5f 103c b548 0d3e a1a0 b9bd
00000060: f2b6 2bbc aff1 c83d 254e 90bd bc10 833d
00000070: 4824 bfbd 42c8 2fbc e05c 843d 1cb1 27be
0.037769105 0.021770101 0.114610195 -0.13741323 -0.12410447 -0.013987949 -0.16167551 0.14305645
0.108049 -0.0991309 -0.09758941 0.15411606 -0.030906882 -0.10198993 0.06200779 0.019011553
-0.047632113 -0.05626356 0.021182882 0.0011000546 -0.13918982 0.008811799 0.13797267 -0.09063841
-0.010480629 0.098117225 -0.07046155 0.06399676 -0.09333092 -0.0107288975 0.06463027 -0.16376156

dense2.weight f4 [12, 32]
00000000: 87fe 803c 2a43 e8b8 ded1 103e dd43 66bc
00000010: a9a9 173e ca99 ef3c c928 eebd ef4b d03d
00000020: 0309 de3d de63 4ebc fb6d 1bbd 75f3 0bbe
00000030: 007b f0bd 7122 d5bd a78c 043e f49a 1abe
00000040: 476d 853d 6e41 f6bb e00f a4bc 3ef2 233e
00000050: 66ca 8fbd c903 a03c 827c 98bc b328 6d3d
00000060: d314 aabb 3f52 c13d 1eac 383e 2347 f2bb
00000070: cec2 1ebd 47a7 a8bd 6cf1 b8bd dec6 083e
00000080: 0322 96bd 535b b5bd c0d9 58bd a53f d5bd
00000090: 2b7a d6bd 147c fd3d 6d42 5ebd 026c e9bd
000000a0: b520 163e b040 093e 8393 3f3d b9f7 24be
000000b0: 368e 683d d14c a63d 11ff 193e e532 993d
000000c0: d754 bf3c bc42 ca3d c93a 6c3c 6d8e f63c
000000d0: e838 233d d125 85bd 5952 f93d f768 883d
000000e0: 4fb8 08bd 7b49 2b3e a4a5 1cbe 9569 863d
000000f0: 50e9 b33d 7333 df3b 873d 023d 8e65 e73d
00000100: 8f7a b23c c721 a7bc 80f9 fd3d 12fa 183d
00000110: 0ed5 1e3e 1ba8 cb3d 23bd c1bd 18c0 08be
00000120: 5100 30be 9f41 a2bc deeb 773d 9f85 a2bd
00000130: 2e04 96bd 7977 a53d b74e f23d 8e5c 8d3d
00000140: 24a4 9cbd f7e2 0c3d 12f2 813d 0bf3 a0bd
00000150: 853c b13d e1c1 a5bc 40c4 dabd a0fb 0ebd
00000160: 98a2 21bd 616b 00be 6d2a b3bd 12a5 1f3e
00000170: 9893 22be ab4e 9abd 8c4a 0ebe a25d 473d
00000180: 8fd4 04bd 3348 f43d 6b82 10be dbc8 2c3d
00000190: 6c4d 2dbe 45d9 14be 88f5 2dbe 1c66 febd
000001a0: 51bd 8d3d b167 bd3d 1d00 ca3d f787 3ebc
000001b0: 1fb9 9fbd e3eb 103e 4b73 903c 10b9 d33d
000001c0: e786 0dbd 7024 9ebd 154c 91bd 2544 083e
000001d0: 2f9b ff3d bf2b ba3d 0a12 d63d bd49 aebd
000001e0: db38 02bd 93dc 2e3e 7dca dd3d fe26 783c
000001f0: bcc4 d5bc dcce e1bd 6db9 26be f480 55bd
00000200: df78 8e3d 72b0 073e bc10 f0bd c5e1 083e
00000210: f274 f9bc 86e9 8c3d 3fa4 16be ce41 f53d
00000220: d34a 1c3d eb8d 17bd fb8b 173e 4030 eb3d
00000230: 676f 233d b89c 69bd 3abc 59bc 5e89 06bd
00000240: 34d8 cabd b7fe 8b3d 8000 2ebe 1376 6a3c
00000250: fa0d 08be 43eb 233d 60ff 07bd eee9 603d
00000260: 98cb 2d3e 68ed cd3d 14e1 6c3d 8b97 2c3e
00000270: 5a20 41bc d96a e93d 0a5d 8f3d 96aa 5f3d
00000280: ef20 3dbd cc91 203e f13e 1abe af22 c83d
00000290: bcaf 173d 8cd8 d43d 3fb2 1bbe 3f9a 25be
000002a0: c9fa fb3a e75e 05bd 948a 2cbe e4ac 2d3e
000002b0: 665c d93c 0998 513c a8cd 0bbe 907c 4c3d
000002c0: c408 e63d d717 9c3c eccd a23d 14b1 dcbc
000002d0: e623 843d fb31 d03d 95da 963c 1971 283e
000002e0: 022e bfbd 09be 8e3d f66e 233d 399a 123c
000002f0: 1a54 073e eb1c 5d3c 5aa2 2d3e 48ef c9bd
00000300: 72f2 34be 698f 103e 5eb8 243e 543c 283e
00000310: 928f 80bd 8c25 123e f5af 05be 38c3 28be
00000320: 58ac 933d 8bd7 c5bd ccf3 29be 7adf 23be
00000330: 2eeb f53c 3e8c adbd 2992 a2bd 204f 7abd
00000340: 97f4 8ebc 1799 a8bc dc40 053e e92c d8bc
00000350: 6e77 10be f53a 96bd 0d2c 9d3d 73ed 59bd
00000360: ebc6 b33d ecae 873d e4e6 193e c7b6 c6bd
00000370: 9904 1e3e 5400 b53d 36f9 05be eb33 e6bc
00000380: f3d9 933d 5d78 aabd 0e00 633c 2451 d3bb
00000390: f69d 0cbc d337 00be 4abd 19bc 94a7 98bd
000003a0: 59f6 16be ec22 df3d 5457 b6bc 3150 bb3d
000003b0: 774d 91b9 8026 2cbd 0d54 fcbc dbd2 273e
000003c0: 37d9 993c 8c46 f33d d811 c43d 1eb0 213b
000003d0: 576a 1a3e 0125 4bbc 3499 173e 56a4 273e
000003e0: e5ca 4f3d 67de 84bd 337b bd3d abbe 0dbd
000003f0: 0ec1 2bbd 0135 8cbd 5edf 22be 4d20 983d
0.015746368 -0.00011075132 0.14142558 -0.014054266 0.14810814 0.029248137 -0.11628873 0.10170733
0.108415626 -0.012597052 -0.037946682 -0.1366709 -0.117422104 -0.1040696 0.1294428 -0.15098172
0.065149836 -0.007515124 -0.020027101 0.16010377 -0.07021026 0.019533055 -0.018614057 0.057900142
-0.0051904707 0.09439515 0.18034407 -0.007393734 -0.03876 -0.082350306 -0.090304226 0.13357112
-0.07330706 -0.08855309 -0.052942038 -0.1041253 -0.104725204 0.12377182 -0.054262567 -0.11397554
0.14660914 0.13403583 0.046771538 -0.16110124 0.056776248 0.0812012 0.15038706 0.074804105
0.023355884 0.0987601 0.014418312 0.03009721 0.039849192 -0.065013535 0.1217391 0.066606455
-0.033378895 0.1672725 -0.15297562 0.06563107 0.08784735 0.006811553 0.03179696 0.11298667
0.021786956 -0.020401848 0.12401104 0.03734786 0.15510961 0.09944173 -0.09459903 -0.13354528
-0.1718762 -0.019806681 0.060527675 -0.079356425 -0.07325016 0.08079428 0.1183142 0.06902419
-0.07648495 0.034396138 0.063449994 -0.07858857 0.08654121 -0.02023405 -0.10681963 -0.034907937
-0.039461702 -0.12540962 -0.087483265 0.15590313 -0.15876615 -0.07534536 -0.13895625 0.04867328
-0.032429274 0.119278334 -0.1411225 0.04218374 -0.16924065 -0.14536007 -0.16988194 -0.124218196
0.06920875 0.09248293 0.09863303 -0.011629096 -0.07798981 0.14152484 0.017633101 0.10338032
-0.03455248 -0.07721794 -0.070945896 0.13307245 0.12480771 0.09090375 0.104526594 -0.08510158
-0.031792503 0.1707633 0.10829637 0.015146015 -0.026094787 -0.110257834 -0.16281672 -0.052124932
0.06956648 0.13250902 -0.11721942 0.13367374 -0.030451272 0.068804786 -0.14711092 0.11975442
0.038157295 -0.037000578 0.14799492 0.11483812 0.039901163 -0.057034224 -0.013289506 -0.032845847
-0.09904519 0.068356924 -0.16992378 0.014310378 -0.13286582 0.040019285 -0.03320253 0.054910593
0.16972196 0.10055047 0.05783184 0.16854684 -0.011787498 0.11397333 0.07000168 0.054606043
-0.046173986 0.15680617 -0.15063073 0.0977224 0.037032828 0.103928655 -0.15204714 -0.16172121
0.001922452 -0.03256121 -0.16849738 0.16960484 0.026533317 0.012792596 -0.1365267 0.04992348
0.11232141 0.019054336 0.07949433 -0.026939906 0.064521596 0.10165783 0.018414775 0.16449393
-0.09334947 0.0696984 0.039900742 0.008947902 0.13215676 0.013495664 0.16956463 -0.098600924
-0.1767061 0.14117207 0.16085956 0.16429263 -0.06277384 0.14272135 -0.13055404 -0.1648072
0.07210606 -0.09660252 -0.16596907 -0.16003218 0.030019369 -0.08474015 -0.07938034 -0.061110616
-0.017450614 -0.020580811 0.13013023 -0.026388602 -0.14108059 -0.07335464 0.07674418 -0.053204965
0.08778175 0.066251606 0.15029484 -0.09702831 0.15431441 0.08837953 -0.13083348 -0.028100928
0.07219305 -0.08323739 0.0138549935 -0.0064488817 -0.008582583 -0.12521295 -0.009383509 -0.07453838
-0.14742412 0.10895333 -0.022258438 0.09146155 -0.0002771427 -0.042028904 -0.030801797 0.16389029
0.018780334 0.1187869 0.09573716 0.0024671624 0.15079628 -0.012398959 0.14804536 0.16371283
0.050730605 -0.064877324 0.09252014 -0.034605663 -0.04193216 -0.06846047 -0.1590552 0.07428036

dense2.bias f4 [12]
00000000: 0ff5 44bc 4946 083e 2863 953d 1b26 12be
00000010: 1cef 1e3d 4960 30bd f07b d03d 9dc1 a13d
00000020: bf79 253b 7326 31bd 0495 273d 73f9 bfbd
-0.012021317 0.13308062 0.07294303 -0.14272349 0.03880225 -0.043060575 0.10179889 0.07898257
0.0025249568 -0.04324956 0.040913597 -0.093737505

dense3.weight f4 [2, 12]
00000000: b3d5 993d b057 23be 147e 793e 0567 f5bd
00000010: f021 6bbe 39e9 b0bd f9eb fcbd db49 583e
00000020: 3683 4dbe 4198 453e 4527 3a3e 1c0d 1bbe
00000030: f452 8c3e c9b6 c63c fb97 88be a916 553e
00000040: 6b68 79be a2b5 af3d fdb7 88be 5cea 16be
00000050: 59a6 93bd bdee 01bd 57ad 2b3e 95ee 2a3d
0.07511463 -0.15951419 0.24364501 -0.1198254 -0.22962165 -0.08638234 -0.12349696 0.21121924
-0.20069584 0.19296362 0.18179043 -0.1514172 0.27407038 0.02425708 -0.26678452 0.20809425
-0.24356239 0.085795656 -0.26702872 -0.14737839 -0.07209463 -0.03172182 0.16765343 0.041731436

dense3.bias f4 [2]
00000000: 25fe 843b 92e7 d83d
0.0040586167 0.105910435
